model/model.pth.tar (torch_old, 596420 bytes, 7 tensors)

encode.weight f4 [65, 128]
-0.9247324 -0.18091199 0.052667767 1.3358173 0.015857432 0.083275326 0.555968 1.6501472
-0.47174805 1.7224644 -0.73831797 0.46779338 1.3321749 -0.66565746 -0.46115118 0.092509374
0.26703867 -0.7682549 -2.1890917 0.82058966 -1.7349243 -1.1139516 1.1104534 0.33139238
-0.07664539 -0.36139366 0.35043034 0.046592075 1.3429145 1.2386544 -0.5964509 -0.7677367
-1.9988443 -1.1856737 2.4956377 -0.048240297 0.4145235 -0.8912388 -0.16890724 0.28848463
-1.1538968 0.542713 -1.1729417 0.54629695 -0.43186337 -0.147277 1.8728825 -1.0737078
1.0474131 1.3358724 -0.74886024 -0.76100814 -0.9323751 -0.6743638 -0.62872636 -1.1549757
1.339068 -1.5845948 -1.7659873 -2.142138 1.0360973 0.32821995 1.1651952 -0.4232329
0.66965103 -1.6550744 0.9364191 -0.52154523 -0.08057895 -0.8565664 -0.2778796 0.09238236
0.0011620311 0.8846065 -0.7864576 -0.49494243 1.2602607 0.7100606 0.5000407 -0.28202832
-0.55665606 0.5366314 0.96561235 1.4324034 -0.7567313 -0.5924914 -2.028867 -1.1617064
-1.7462735 0.7601703 0.615493 0.2892667 -0.99918485 0.9155338 -0.38465053 0.5628141
0.37232703 -0.35260913 0.7800645 0.93807495 0.49209094 0.8824156 -0.20286524 -0.8320579
-0.77131236 -1.5281533 0.36724848 0.33954397 -0.27619144 1.292875 0.03585674 0.33296967
2.5165205 -0.29446968 1.4391108 -2.1253316 -0.30577904 0.9356454 0.563432 -0.30360022
-1.4262255 -0.2878399 0.588776 0.055458095 -0.1830517 -1.2111056 0.99186784 1.1093752
-0.17123356 1.7184869 0.51982546 0.37710038 -0.215613 2.2152634 0.11951224 -0.48871595
-1.5355016 -0.040428564 0.7605988 -1.5670712 0.15766737 0.7323565 0.75257385 0.034984726
0.77617645 -1.5098766 -1.6315054 -1.1356343 -0.029713284 -0.059558537 -0.90689224 -0.6285666
1.194939 0.012647008 -1.319536 0.10381267 1.8131319 0.3244253 0.7742858 0.9353017
-0.28416744 -0.6493957 -0.13510376 1.7588524 0.8062569 -0.6448217 -0.22811893 -0.62543815
-0.5410179 -0.8065897 -0.1084716 -1.6512159 2.0290723 -0.2109103 -1.5868945 -0.70006025
2.623343 0.43822324 -0.38933688 -0.4920322 -0.19913112 -0.93561304 -0.100974716 -0.058082912
-1.2598982 0.8841756 0.039036013 1.3239734 0.24467944 -0.03228329 0.8869848 0.17204696
-0.17694816 0.06034343 -1.5496483 -1.6621902 0.8977569 0.47034463 0.8311156 0.41552094
0.7289389 -0.4819305 1.4064363 0.39660975 -1.584037 0.5600281 -0.42024425 -0.93023175
0.5690036 0.48851478 0.8263366 0.54325885 -2.7272735 0.05867791 1.292054 -0.48151132
-0.51489586 -1.3122393 -0.28402054 1.202814 -0.0112153 0.8182477 0.70480824 -1.3564988
1.33321 -0.4773663 1.0618329 -0.22961752 -1.812433 1.2072501 0.8748551 0.017915681
0.0036150415 -0.91448385 -0.66677195 0.21214078 -1.9943436 -0.7025264 1.2929096 -0.39060575
0.54559046 -1.4345018 0.41964692 0.8253008 -0.9755768 0.11816867 0.043317527 -1.6085398
0.4911834 0.4984014 1.8218582 0.6412074 -0.3865352 2.2986867 0.43434834 -1.6694622
00000000: 43bb 6cbf fe40 39be 28ba 573d 10fc aa3f
00000010: 72e7 813c 418c aa3d eb53 0e3f 0638 d33f
00000020: f688 f1be b779 dc3f 6802 3dbf 9d82 ef3e
00000030: b584 aa3f 8768 2abf 021c ecbe 8e75 bd3d
00000040: 4bb9 883e 5aac 44bf 141a 0cc0 2a12 523f
00000050: 0012 debf f795 8ebf 5623 8e3f 43ac a93e
00000060: 42f8 9cbd 9708 b9be 9b6b b33e 55d7 3e3d
00000070: 9fe4 ab3f 3a8c 9e3f 02b1 18bf 648a 44bf
00000080: 21da ffbf 28c4 97bf 87b8 1f40 9e97 45bd
00000090: 6d3c d43e 3a28 64bf 05f6 2cbe 42b4 933e
000000a0: e4b2 93bf 3def 0a3f f422 96bf 1eda 0b3f
000000b0: 321d ddbe c8cf 16be 9dba ef3f 426f 89bf
000000c0: a211 863f defd aa3f 4eb5 3fbf 6ed1 42bf
000000d0: 22b0 6ebf 1ba3 2cbf 36f4 20bf 3ed6 93bf
000000e0: 9566 ab3f 01d4 cabf df0b e2bf ca18 09c0
000000f0: d69e 843f 720c a83e 1e25 953f fcb1 d8be
00000100: 406e 2b3f 7ad9 d3bf 2ab9 6f3f fd83 05bf
00000110: 9406 a5bd f047 5bbf 3c46 8ebe f632 bd3d
00000120: 4b4f 983a 9275 623f 4955 49bf 1869 fdbe
00000130: 3950 a13f 88c6 353f ab02 003f 0466 90be
00000140: 0381 0ebf ad60 093f 5f32 773f ff58 b73f
00000150: 24b9 41bf 84ad 17bf f5d8 01c0 ccb2 94bf
00000160: e485 dfbf 859a 423f f390 1d3f c41a 943e
00000170: 94ca 7fbf 6c60 6a3f eaf0 c4be 9614 103f
00000180: a6a1 be3e 2f89 b4be 4fb2 473f ae25 703f
00000190: 58f3 fb3e fde5 613f e8bb 4fbe bf01 55bf
000001a0: ba74 45bf 879a c3bf fe07 bc3e b5d8 ad3e
000001b0: f768 8dbe ee7c a53f 84de 123d 007b aa3e
000001c0: ac0e 2140 bbc4 96be c834 b83f 6f05 08c0
000001d0: 128f 9cbe 7586 6f3f 143d 103f 7d71 9bbe
000001e0: 8f8e b6bf c05f 93be 06ba 163f 0728 633d
000001f0: e871 3bbe 8205 9bbf 0deb 7d3f 0200 8e3f
00000200: da57 2fbe 61f7 db3f 4813 053f 4d13 c13e
00000210: a7c9 5cbe e0c6 0d40 d5c2 f43d fa38 fabe
00000220: 518b c4bf 6c98 25bd 9ab6 423f ca95 c8bf
00000230: 8e73 213e b77b 3b3f aea8 403f 254c 0f3d
00000240: 80b3 463f a343 c1bf 2bd5 d0bf 775c 91bf
00000250: 4669 f3bc a7f3 73bd 172a 68bf bee9 20bf
00000260: c3f3 983f 6535 4f3c 8ee6 a8bf bd9b d43d
00000270: b514 e83f 131b a63e 9837 463f ef6f 6f3f
00000280: 657e 91be cc3e 26bf a458 0abe 1322 e13f
00000290: da66 4e3f 0913 25bf 0298 69be b71c 20bf
000002a0: 2680 0abf aa7c 4ebf 5c26 debd 0b5b d3bf
000002b0: 52dc 0140 dff8 57be 5c1f cbbf 2637 33bf
000002c0: dae4 2740 cc5e e03e 2a57 c7be a5eb fbbe
000002d0: 07e9 4bbe 5684 6fbf d5cb cebd 59e8 6dbd
000002e0: 5844 a1bf 5559 623f 3ae4 1f3d f677 a93f
000002f0: 3f8d 7a3e 7c3b 04bd 7011 633f 142d 303e
00000300: e631 35be ac2a 773d e05a c6bf a6c2 d4bf
00000310: 65d3 653f 03d1 f03e fec3 543f 29bf d43e
00000320: bd9b 3a3f 98bf f6be 1b06 b43f 6f10 cb3e
00000330: b9c1 cabf 005e 0f3f 412a d7be ab23 6ebf
00000340: 38aa 113f 9c1e fa3e cc8a 533f 0313 0b3f
00000350: a68b 2ec0 4058 703d 0762 a53f a788 f6be
00000360: 37d0 03bf 75f7 a7bf 246b 91be cff5 993f
00000370: 61c0 37bc ae78 513f 506e 343f c1a1 adbf
00000380: a0a6 aa3f 5b69 f4be 24ea 873f db20 6bbe
00000390: cefd e7bf 2c87 9a3f 81f6 5f3f e8c3 923c
000003a0: 55ea 6c3b 9d1b 6abf 91b1 2abf 6f3b 593e
000003b0: a746 ffbf c5d8 33bf 107e a53f 7afd c7be
000003c0: d1ab 0b3f c19d b7bf f6db d63e ea46 533f
000003d0: 67bf 79bf 6a02 f23d b86d 313d a2e4 cdbf
000003e0: 647c fb3e 782e ff3e a632 e93f 2b26 243f
000003f0: f1e7 c5be af1d 1340 e862 de3e f0b0 d5bf

lstm.weight_ih_l0 f4 [512, 128]
0.13591805 -0.120448045 -0.15839577 -0.050917417 -0.03550632 -0.1157107 0.050462056 -0.077075645
0.08106747 -0.021330297 -0.0036840828 -0.06497357 -0.06157875 0.052154165 -0.18261983 0.13211574
0.16086695 0.057070017 -0.03474942 -0.008657826 0.08780507 -0.010061103 0.09589153 -0.03796361
0.01598241 0.07674672 -0.013186539 0.026302535 0.043246854 -0.07437602 -0.09661976 0.16037345
0.033682734 0.10508507 0.0002548123 -0.13653499 0.06716248 0.009357763 0.02647138 -0.08823127
-0.029970951 0.006308303 -0.09519936 -0.24376741 0.35173288 0.18875518 0.0026402948 -0.09028704
-0.025209447 -0.033840965 0.005685225 -0.05207848 0.08780636 0.08813955 0.04803709 0.054287773
-0.13240947 -0.050735485 0.11572937 0.10475952 -0.058225363 0.0651606 -0.3266068 0.030653598
0.11051196 0.025192771 -0.09168011 0.04672044 -0.124411464 0.1325875 -0.12558782 -0.090024315
-0.22881368 0.033132907 0.025987409 0.06735887 0.063620485 0.054119993 0.047850344 0.038221065
-0.2147255 0.083062805 -0.05934693 0.03684569 -0.0428597 -0.044562172 -0.09908668 0.079902664
-0.08327122 -0.10405503 -0.007994178 0.0029669616 0.07959185 -0.030001994 0.051964935 -0.21619879
-0.16720718 -0.14397475 -0.018899199 -0.21119338 0.45592293 0.10386758 -0.32151997 0.020317411
-0.070459485 0.01695769 -0.054787677 -0.07862956 -0.0441997 0.00078163174 -0.10840494 0.11604384
-0.04818764 -0.04090772 0.031171726 -0.0019674161 0.22623743 -0.08929741 -0.21532357 0.18084037
-0.13571535 0.045338277 -0.17962284 0.05972368 0.10868222 0.00029257638 -0.04656811 -0.026358299
-0.049082495 -0.35660115 -0.007230126 -0.0031420363 0.08226461 -0.03328411 0.06881862 -0.09379912
0.11648716 -0.038970172 -0.0114032915 -0.04259588 -0.22431591 0.011757621 -0.024281232 0.1429929
-0.10495777 -0.05802425 -0.18802279 0.0710594 -0.10434455 -0.09706614 0.1667726 0.18632951
-0.20081758 0.084118664 -0.06131327 0.11011112 -0.016977629 -0.061749008 -0.117467895 0.13201168
-0.17943616 -0.027239399 0.15352294 -0.15058298 -0.25356182 0.09082118 -0.01447634 -0.032097977
0.056666102 0.21394473 0.19075681 0.32651147 -0.22289355 -0.23239407 0.11599027 -0.49338004
-0.066042006 0.26295757 -0.057526756 -0.0073508346 -0.08853078 0.12283211 0.28796765 -0.2148332
-0.14923708 -0.34109986 -0.12558739 0.09257268 0.34346396 -0.071358636 -0.13826668 -0.034120683
-0.017057432 -0.08401727 -0.1284952 0.24350093 -0.3524829 -0.11672903 -0.25438395 0.27067092
0.11722198 0.16502364 -0.14357495 -0.21636163 0.19787535 0.34222877 0.20107146 0.07655993
-0.2695682 -0.102347665 -0.04464119 0.12063197 0.042809304 -0.14017075 -0.08391889 -0.09798342
-0.21098235 0.33027378 -0.046725765 0.22396776 -0.08598574 0.103470534 0.077793665 0.21816708
0.014914092 0.008079518 0.36499023 0.0025708438 0.3495486 -0.16581924 0.102765575 0.06980549
0.16257572 0.08803183 0.09798692 0.066978425 -0.010741609 0.04717366 0.0057865493 0.20625058
-0.15043117 -0.008439528 0.0064758076 -0.16525486 -0.09754792 0.29426244 -0.22360782 0.20631203
0.013893501 0.0074821315 -0.10397431 -0.09678087 0.07144296 -0.1763938 0.0026972073 0.085276924
00000000: 1a2e 0b3e 77ad f6bd 8032 22be c88e 50bd
00000010: 136f 11bd bbf9 ecbd 4db1 4e3d d6d9 9dbd
00000020: b406 a63d e0bc aebc a770 71bb dd10 85bd
00000030: 003a 7cbd 9b9f 553d b100 3bbe 5949 073e
00000040: 4eba 243e 40c2 693d 6855 0ebd 8ed9 0dbc
00000050: 25d3 b33d 53d7 24bc c762 c43d bb7f 1bbd
00000060: 8bed 823c 622d 9d3d 5a0c 58bc 6a78 d73c
00000070: 9d23 313d 7452 98bd 95e0 c5bd f038 243e
00000080: e8f6 093d d736 d73d 5498 8539 d4cf 0bbe
00000090: 7b8c 893d 4e51 193c 82da d83c 99b2 b4bd
000000a0: a485 f5bc e2b5 ce3b e2f7 c2bd 2a9e 79be
000000b0: 5516 b43e 0a49 413e cc08 2d3b 69e8 b8bd
000000c0: 0b84 cebc d39c 0abd 204b ba3b 3f50 55bd
000000d0: d2d3 b33d 8282 b43d 8ac2 443d db5c 5e3d
000000e0: 5996 07be 03d0 4fbd 8503 ed3d 298c d63d
000000f0: b87d 6ebd ec72 853d 0239 a7be 411d fb3c
00000100: 1854 e23d 1261 ce3c c8c2 bbbd ef5d 3f3d
00000110: 70cb febd 05c5 073e 189a 00be ab5e b8bd
00000120: 224e 6abe 5fb6 073d 8ce3 d43c 72f3 893d
00000130: 754b 823d edac 5d3d b9fe 433d b18d 1c3d
00000140: 00e1 5bbe d51c aa3d c415 73bd 82eb 163d
00000150: a78d 2fbd d386 36bd f5ed cabd 02a4 a33d
00000160: 1a8a aabd ce1a d5bd 03fa 02bc 5b71 423b
00000170: 0d01 a33d bec6 f5bc 2fd9 543d 3763 5dbe
00000180: 5c38 2bbe 1e6e 13be 7ed2 9abc 1443 58be
00000190: bb6e e93e 87b8 d43d 449e a4be b370 a63c
000001a0: 104d 90bd daea 8a3c 0b69 60bd 8908 a1bd
000001b0: bf0a 35bd 6be6 4c3a 6903 debd 65a8 ed3d
000001c0: 6760 45bd da8e 27bd d95b ff3c c4ef 00bb
000001d0: c9aa 673e 8fe1 b6bd c87d 5cbe 382e 393e
000001e0: f7f8 0abe a1b4 393d 0def 37be d1a0 743d
000001f0: c994 de3d f064 9939 34be 3ebd 5ced d7bc
00000200: ba0a 49bd 6d94 b6be b1ea ecbb 9fea 4dbb
00000210: 597a a83d eb54 08bd c7f0 8c3d c119 c0bd
00000220: d290 ee3d 309f 1fbd dfd4 3abc 0479 2ebd
00000230: 12b3 65be 09a3 403c 6fe9 c6bc bb6c 123e
00000240: 19f4 d6bd d6aa 6dbd 0c89 40be 9787 913d
00000250: 98b2 d5bd 9dca c6bd 70c6 2a3e 2acd 3e3e
00000260: 20a3 4dbe 6846 ac3d a023 7bbd f081 e13d
00000270: ab14 8bbc 87ec 7cbd 0293 f0bd 122e 073e
00000280: 1dbe 37be 2925 dfbc 1e35 1d3e 6d32 1abe
00000290: dbd2 81be 7400 ba3d 2c2e 6dbc 2b79 03bd
000002a0: b71a 683d 5414 5b3e c155 433e 832c a73e
000002b0: 353e 64be b6f8 6dbe 4f8c ed3d 4f9c fcbe
000002c0: 0841 87bd 60a2 863e 2da1 6bbd 45df f0bb
000002d0: a04f b5bd 678f fb3d 7f70 933e 3cfd 5bbe
000002e0: 9bd1 18be a4a4 aebe fb99 00be bf96 bd3d
000002f0: 82da af3e 7a24 92bd c895 0dbe 21c2 0bbd
00000300: 07bc 8bbc 3f11 acbd 3f94 03be 4f58 793e
00000310: a378 b4be a10f efbd 9d3e 82be 6195 8a3e
00000320: 1412 f03d f5fb 283e 5005 13be e78d 5dbe
00000330: d69f 4a3e 9c38 af3e ade5 4d3e 74cb 9c3d
00000340: d804 8abe a79b d1bd aed9 36bd e50d f73d
00000350: cf58 2f3d ec88 0fbe abdd abbd 88ab c8bd
00000360: c20b 58be a519 a93e 8463 3fbd ce57 653e
00000370: 4b19 b0bd 5ce8 d33d 4952 9f3d 3167 5f3e
00000380: 3c5a 743c f45f 043c 00e0 ba3e 9a7b 283b
00000390: 09f8 b23e 85cc 29be c276 d23d 2ef6 8e3d
000003a0: 407a 263e 084a b43d 5ead c83d fc2b 893d
000003b0: 93fd 2fbc 2b39 413d 189d bd3b 5a33 533e
000003c0: a10a 1abe f245 0abc 0333 d43b 9238 29be
000003d0: 34c7 c7bd 91a9 963e 73f9 64be 7643 533e
000003e0: 91a1 633c ab2c f53b 7cf0 d4bd 0c35 c6bd
000003f0: b050 923d 94a0 34be a1c3 303b aba5 ae3d

lstm.weight_hh_l0 f4 [512, 128]
1.2057238 -0.20287345 0.30031857 0.04961526 -0.18252698 -0.27148843 0.0011925013 -0.37543464
-0.03720345 -0.069206305 -0.14705369 0.0064121825 0.013039369 0.3091426 -0.055695288 -0.13350962
0.1004095 -0.12397712 0.16397113 0.0126110595 0.026132982 0.015299985 -0.12358026 0.04399757
0.0017952401 -0.41408262 0.44334823 0.23267524 -0.13508828 0.054007646 0.03584196 0.22656848
-0.081677794 0.045146976 -0.009531508 0.17804459 -0.011319801 -0.07705108 0.19127642 0.11581414
-0.28648174 -0.17160195 0.15653569 0.02415873 0.10160054 0.011369037 0.012727801 0.14569876
0.2570897 0.022074835 -0.017480003 0.017039625 0.016525006 0.10588795 0.1943966 -0.05094614
0.16266347 0.30015743 -0.14508124 -0.3301203 -0.097825386 -0.08431771 -0.1615023 0.054906253
0.004476217 0.024071429 0.093760446 -0.01726952 -0.172586 0.44390032 0.03146688 0.324486
0.18350738 0.09498516 -0.21368136 0.15244123 -0.032964155 -0.31709546 0.08121487 -0.032975692
0.11413247 -0.0034220603 -0.15459356 0.009963235 -0.17995341 0.128106 -0.13924539 0.18632005
-0.11405486 0.027427053 -0.078985766 0.042394508 -0.054934658 -0.27794707 -7.645019e-05 -0.09307484
-0.075891964 0.084143825 -0.134428 -0.42244717 -0.42424554 -0.055083465 -0.011869471 0.051544443
0.014860314 -0.09085424 -0.29081288 0.009176226 0.10751088 0.03725518 0.0924412 0.17324154
0.53066534 0.030199332 -0.07126816 0.012042895 -0.3302921 -0.018776719 -0.07523892 -0.11617447
0.146428 0.57481515 0.13918978 -0.039389934 0.1191474 -0.2414604 0.13522011 0.076729394
0.009213564 0.22356787 -0.06550908 -0.15514338 -0.5794089 -0.11734943 -0.044965602 0.2433177
0.4039365 -0.16441922 0.1683842 0.0012040191 -0.0696274 -0.052690152 0.016627215 0.1220328
-0.14830272 -0.10185271 -0.15510194 -0.27640384 -0.19400623 -0.106428534 -0.15383609 0.03253301
-0.25243795 -0.19584474 -0.2099535 0.05227518 -0.023872068 0.17151567 0.031377174 0.008229256
0.058256716 0.005644237 0.2790223 -0.14268602 -0.007989244 -0.08002831 -0.19577408 0.14475799
-0.13651803 0.054642405 -0.17290449 0.030517839 -0.29862374 -0.10320873 -0.03694312 0.03244359
0.20932089 0.06193794 0.15692651 0.15062433 -0.15853871 0.09202833 0.23170254 -0.052123137
-0.019868419 0.38722005 -0.29639328 -0.093562424 0.35441494 0.22210287 0.0649349 0.029312868
-0.17442395 0.041432012 0.14793873 0.05027804 0.0029569338 -0.10668777 0.110046156 -0.22579153
0.097256854 0.054783884 -0.09781607 0.12366996 -0.6900095 -0.1150897 -0.06813224 0.022053964
0.0063284487 0.059128843 0.017786369 -0.23493725 -0.29340747 0.16962473 -0.30776083 -0.05904998
-0.07481203 0.002962424 -0.18130498 -0.16454607 0.16655631 0.13167164 0.12646441 -0.032774717
0.024158884 -0.47983316 0.11271298 0.4764965 -0.30194706 0.17369851 -0.12500836 0.14161827
-0.18295066 -0.025318518 0.18994217 -0.19286738 -0.103841886 0.1742082 -0.037024077 -0.057644337
-0.06258521 0.038613494 -0.021877868 0.1240672 0.27332732 0.106332034 0.22622998 -0.16165057
0.052360065 0.77366847 0.12415066 0.065628916 0.19703574 -0.40076843 -0.015898334 -0.33008125
00000000: 2855 9a3f 0fbe 4fbe 5bc3 993e 5f39 4b3d
00000010: 5ae8 3abe 8800 8bbe b44d 9c3a f838 c0be
00000020: a562 18bd 09bc 8dbd 3e95 16be 491d d23b
00000030: 14a3 553c f047 9e3e be20 64bd bfb6 08be
00000040: 7fa3 cd3d b7e7 fdbd 0ce8 273e 9e9e 4e3c
00000050: d614 d63c caac 7a3c a617 fdbd cc36 343d
00000060: 434e eb3a a302 d4be 8afe e23e 6b42 6e3e
00000070: 9554 0abe 1f37 5d3d 05cf 123d 9101 683e
00000080: b046 a7bd 09ec 383d 0b2a 1cbc 5251 363e
00000090: b076 39bc f5cc 9dbd f7dd 433e f72f ed3d
000000a0: bcad 92be 6cb8 2fbe e44a 203e 87e8 c53c
000000b0: f213 d03d 3345 3a3c 4488 503c 0e32 153e
000000c0: 43a1 833e 49d6 b43c 3932 8fbc af96 8b3c
000000d0: 735f 873c c8db d83d e70f 473e e6ac 50bd
000000e0: 4191 263e 3cae 993e 2d90 14be 8705 a9be
000000f0: ad58 c8bd c3ae acbd dc60 25be 61e5 603d
00000100: 3bad 923b 7231 c53c 7a05 c03d cf78 8dbc
00000110: 62ba 30be e746 e33e 6ae3 003d 0723 a63e
00000120: 5ce9 3b3e 9487 c23d 49cf 5abe 8e19 1c3e
00000130: 6c05 07bd 565a a2be fb53 a63d 8511 07bd
00000140: 49be e93d a544 60bb c64d 1ebe d63c 233c
00000150: b545 38be 382e 033e 5896 0ebe afca 3e3e
00000160: 9895 e9bd b3ae e03c 4ac3 a1bd dda5 2d3d
00000170: 2a03 61bd 144f 8ebe e253 a0b8 069e bebd
00000180: 3f6d 9bbd 9953 ac3d 7ea7 09be ff4a d8be
00000190: b636 d9be 339f 61bd 2b78 42bc 4420 533d
000001a0: ad78 733c ca11 babd 6de5 94be e257 163c
000001b0: aa2e dc3d e398 183d d051 bd3d 3b66 313e
000001c0: afd9 073f 9764 f73c 0bf5 91bd 904f 453c
000001d0: 0c1c a9be a2d1 99bc dd16 9abd e1ec edbd
000001e0: 39f1 153e 1627 133f c487 0e3e 5757 21bd
000001f0: 8d03 f43d 6541 77be 2477 0a3e 4d24 9d3d
00000200: 7df4 163c faee 643e a029 86bd e8dd 1ebe
00000210: 2454 14bf e654 f0bd da2d 38bd 4628 793e
00000220: c4d0 ce3e 835d 28be e86c 2c3e 2dd0 9d3a
00000230: cf98 8ebd a1d1 57bd cc35 883c 55ec f93d
00000240: abdc 17be 2798 d0bd 0bd3 1ebe ce84 8dbe
00000250: 92a9 46be 34f7 d9bd 3587 1dbe 5541 053d
00000260: 8c3f 81be 868b 48be 0dfe 56be 801e 563d
00000270: 5b8f c3bc cea1 2f3e 5a85 003d 00d4 063c
00000280: 989e 6e3d 4bf3 b83b 03dc 8e3e 491c 12be
00000290: 51e5 02bc e2e5 a3bd 0079 48be 703b 143e
000002a0: 62cb 0bbe b7d0 5f3d e00d 31be 8c00 fa3c
000002b0: 36e5 98be 195f d3bd ab51 17bd 92e3 043d
000002c0: 3758 563e a3b2 7d3d 58b1 203e 443d 1a3e
000002d0: f957 22be 5979 bc3d 6e43 6d3e 127f 55bd
000002e0: 18c3 a2bc b541 c63e dcc0 97be a89d bfbd
000002f0: e075 b53e ef6e 633e 97fc 843d 8a21 f03c
00000300: 319c 32be 9db4 293d 407d 173e 59f0 4d3d
00000310: 1ec9 413b 1e7f dabd e15f e13d e535 67be
00000320: 9a2e c73d 1165 603d cb53 c8bd ad46 fd3d
00000330: 76a4 30bf 26b4 ebbd ea88 8bbd 84aa b43c
00000340: e05e cf3b 1631 723d b8b4 913c 6493 70be
00000350: 8139 96be 1bb2 2d3e d492 9dbe 64de 71bd
00000360: 0d37 99bd 3a25 423b 03a8 39be c47e 28be
00000370: bd8d 2a3e eed4 063e e37f 013e c83e 06bd
00000380: dae8 c53c b1ac f5be 10d6 e63d 59f7 f33e
00000390: ce98 9abe 06de 313e 3102 00be 6104 113e
000003a0: 6b57 3bbe c868 cfbc 3380 423e 077f 45be
000003b0: 0eab d4bd a263 323e 8fa6 17bd 781c 6cbd
000003c0: ad2c 80bd 2f29 1e3d 3739 b3bc f216 fe3d
000003d0: 8ff1 8b3e 9cc4 d93d d5a8 673e ba87 25be
000003e0: 8277 563d 230f 463f b442 fe3d 7468 863d
000003f0: bdc3 493e 8531 cdbe 393d 82bc 6900 a9be

lstm.bias_ih_l0 f4 [512]
0.036898162 0.072868474 0.094951905 0.06986892 -0.030867906 0.08204095 0.16100903 0.1383373
0.13993648 0.121593416 0.081400685 0.06340322 0.08628719 0.08834594 0.1807185 0.09821688
0.05578349 0.14712057 0.12599176 0.23534109 0.105622 0.105180375 0.23564093 0.0130379
0.035237655 0.23785825 0.08201988 0.20655513 0.01292142 0.09104483 -0.02916943 -0.003796346
0.080371216 0.04013067 0.03614559 0.0053795623 0.101234585 0.07596627 0.020542914 0.13707513
0.08404134 -0.02869383 0.10526291 0.009360599 0.061742287 0.12413901 0.13291666 -0.008910464
0.19103254 0.14029804 0.081839785 0.17054598 0.19434614 0.11225727 0.11048829 0.13691106
0.1597422 0.060886607 0.034787703 0.09383391 0.111519106 0.034208693 0.029723981 0.10473309
0.13410449 0.124041416 0.100818336 0.121713 0.24355511 -0.047298204 0.02718753 0.1853527
0.1450729 0.070357464 0.020094644 0.14333844 0.30092064 0.044894885 0.052658264 0.116687775
0.10072556 0.15047416 0.12339827 0.09561209 0.013805592 0.15875068 0.0735441 0.1608982
0.15511267 0.11431157 0.057832588 0.14012748 0.021212673 0.054677643 0.16478574 0.16391397
0.021525377 0.11704882 0.085158296 0.04801216 0.172225 0.06458868 0.041428737 0.10434164
-0.057127226 0.083000936 0.11628262 0.19297402 0.10223762 0.18949857 0.10690677 0.16072558
0.18146762 0.1328788 -0.010567682 0.108683996 -0.052849397 0.08902589 0.07413904 0.041701257
0.11956095 0.051638223 0.113818236 0.22068655 -0.021773038 0.117665045 0.21363534 0.09466164
0.074758925 0.10384507 0.076843336 0.05747323 -0.088678665 0.110429935 0.10798407 0.008729535
0.06924517 0.13720253 0.12078506 0.0015838646 0.01180569 0.027490128 0.08352217 0.03917047
0.0032295678 0.111698166 0.06097888 -0.027389329 0.07204684 0.09111666 0.15782028 0.1274329
0.006707286 -0.089682005 0.117620006 0.007550529 -0.04401845 -0.0034607786 0.03416941 0.09559791
-0.0396457 0.07827971 -0.14302479 0.041565225 0.11422258 0.00442078 -0.02249662 -0.009726044
0.060676903 0.039062783 -0.06452444 0.03350397 0.04775494 0.0035233845 0.040935423 0.006171413
0.13043664 0.054909784 0.1127559 0.055135224 0.13465758 0.1354942 0.11508895 0.034554645
0.15961853 -0.030993648 0.026757356 -0.07848989 -0.028520092 0.055401288 0.1135025 0.09397379
-0.017187892 -0.036486153 0.085834615 0.13804896 0.027773364 -0.09747169 0.13179773 0.0643252
0.1290468 -0.003186059 -0.010035253 0.030391747 0.13296843 0.014868585 0.101106174 0.013579874
0.0885066 0.036814265 0.0030405673 -0.019224094 -0.094415694 0.0473632 0.028118068 0.0049205003
0.0697007 0.12728672 0.12381507 0.00926596 0.00037996125 -0.072505355 0.085475266 0.07267261
0.02800751 -0.035357315 0.12791917 0.06942997 -0.075372204 0.04656685 0.1261483 -0.056982566
-0.012918399 -0.023551721 0.08992223 -0.051423877 0.0108796405 0.078465514 -0.05015314 0.037381038
0.031236019 0.031160742 -0.022739151 0.11879065 0.056240343 0.12655415 0.011249539 0.047173113
0.0026340676 -0.10969594 0.058131736 0.04535505 0.085046254 -0.02148929 0.03833989 -0.022701656
00000000: 8722 173d 113c 953d 2576 c23d 7017 8f3d
00000010: b1de fcbc 1605 a83d 8ddf 243e 4ba8 0d3e
00000020: 824b 0f3e f805 f93d 67b5 a63d 8cd9 813d
00000030: 57b7 b03d b7ee b43d 450e 393e ee25 c93d
00000040: 3b7d 643d c6a6 163e fc03 013e 41fd 703e
00000050: 5950 d83d cf68 d73d db4b 713e eb9c 553c
00000060: 5c55 103d 1d91 733e 0afa a73d 3083 533e
00000070: 5db4 533c b675 ba3d baf4 eebc 1ecc 78bb
00000080: aa99 a43d 0f60 243d 660d 143d 0a47 b03b
00000090: 1454 cf3d 3494 9b3d 9d49 a83c 6c5d 0c3e
000000a0: de1d ac3d 530f ebbc 1594 d73d 335d 193c
000000b0: 7be5 7c3d 983c fe3d 4e1b 083e 32fd 11bc
000000c0: 099e 433e 4aaa 0f3e 9e9b a73d 9ba3 2e3e
000000d0: ad02 473e 24e7 e53d af47 e23d 6a32 0c3e
000000e0: 7693 233e 3c64 793d 8d7d 0e3d fe2b c03d
000000f0: 2164 e43d 6a1e 0c3d b57f f33c 4d7e d63d
00000100: b052 093e 6d09 fe3d d879 ce3d aa44 f93d
00000110: 8366 793e c3bb 41bd 62b8 de3c 19cd 3d3e
00000120: fe8d 143e 9317 903d 869d a43c 50c7 123e
00000130: 4512 9a3e b3e3 373d 31b0 573d 00fa ee3d
00000140: 3449 ce3d e615 1a3e 3bb8 fc3d 45d0 c33d
00000150: da30 623c 8a8f 223e 4a9e 963d 7fc2 243e
00000160: dbd5 1e3e 2f1c ea3d dde1 6c3d 947d 0f3e
00000170: 33c6 ad3c aaf5 5f3d 98bd 283e 10d9 273e
00000180: fd55 b03c 4bb7 ef3d 7967 ae3d 66a8 443d
00000190: c05b 303e 1247 843d 2eb1 293d 12b1 d53d
000001a0: 3dfe 69bd 65fc a93d 9525 ee3d fb9a 453e
000001b0: f561 d13d ea0b 423e f0f1 da3d 3f95 243e
000001c0: a6d2 393e 6111 083e 1224 2dbc b795 de3d
000001d0: 9c78 58bd 3553 b63d 36d6 973d f0ce 2a3d
000001e0: 5fdc f43d 9a82 533d 8919 e93d a8fb 613e
000001f0: 5f5d b2bc 5ffa f03d 39c3 5a3e f6dd c13d
00000200: 351b 993d b9ac d43d 0a60 9d3d 0d69 6b3d
00000210: 299d b5bd 1729 e23d c126 dd3d 5306 0f3c
00000220: 69d0 8d3d d27e 0c3e 285e f73d ad99 cf3a
00000230: a76c 413c fa32 e13c ac0d ab3d 3771 203d
00000240: 28a7 533b 02c2 e43d fdc4 793d 965f e0bc
00000250: 4b8d 933d 5f9b ba3d a49b 213e c57d 023e
00000260: cbc8 db3b 33ab b7bd c2e2 f03d 6e6a f73b
00000270: b14c 34bd 3bce 62bb 39f5 0b3d d6c8 c33d
00000280: 8863 22bd 1d51 a03d 1775 12be 4c40 2a3d
00000290: 87ed e93d 31dc 903b d54a b8bc fc59 1fbc
000002a0: 5888 783d 4c00 203d 6425 84bd 753b 093d
000002b0: af9a 433d 95e8 663b e7ab 273d 9139 ca3b
000002c0: 2f91 053e 15e9 603d 91ec e63d 79d5 613d
000002d0: ade3 093e febe 0a3e c1b3 eb3d 2c89 0d3d
000002e0: 0a73 233e 64e6 fdbc 3e32 db3c 4fbf a0bd
000002f0: f8a2 e9bc 76ec 623d 0074 e83d 5575 c03d
00000300: 9fcd 8cbc 8172 15bd 0fca af3d b55c 0d3e
00000310: f784 e33c 3d9f c7bd fcf5 063e eebc 833d
00000320: d824 043e 33cd 50bb e76a 24bc 1df8 f83c
00000330: e028 083e 5e9b 733c c110 cf3d 1f7e 5e3c
00000340: f342 b53d 8eca 163d 4144 473b d97b 9dbc
00000350: 045d c1bd eaff 413d dd57 e63c 263c a13b
00000360: 3ebf 8e3d 7357 023e c192 fd3d 41d0 173c
00000370: 8935 c739 b07d 94bd a80d af3d 61d5 943d
00000380: 0170 e53c d5d2 10bd 3efd 023e 4d31 8e3d
00000390: be5c 9abd e2bc 3e3d 052d 013e 8d66 69bd
000003a0: b1a7 53bc 8aef c0bc 2529 b83d d8a1 52bd
000003b0: 8540 323c 87b2 a03d 616d 4dbd dc1c 193d
000003c0: aee2 ff3c d044 ff3c 7547 babc 8348 f33d
000003d0: 465c 663d 6997 013e fd4f 383c 9838 413d
000003e0: 52a0 2c3b 44a8 e0bd 8b1b 6e3d 38c6 393d
000003f0: bb2c ae3d 4f0a b0bc 4a0a 1d3d d3f8 b9bc

lstm.bias_hh_l0 f4 [512]
0.12520535 0.19325057 0.19092259 0.034625713 0.112468146 0.086413026 0.09372827 0.21736565
0.08589082 0.039616298 0.07111283 0.1457634 0.15599811 0.11570025 0.087803416 -0.0040921774
0.123331346 0.1681447 0.22639197 0.2367968 0.049674876 0.1461719 0.1778775 0.0009444501
0.02388652 0.1868958 0.03824836 0.04930485 0.14126374 0.13702463 -0.031512912 0.077902235
0.052106414 0.05948883 0.17052336 0.057769395 0.0963742 0.053301923 0.14836606 0.19105203
0.11045025 0.038154196 0.008673993 -0.02816589 0.08998899 0.1438648 0.18037602 0.04057738
0.20961632 0.2981464 0.1545167 0.08800405 0.18890147 0.19745961 0.11563054 0.10512313
0.008090817 0.058366872 -0.01059685 0.17751174 0.098690115 0.19382879 0.026839888 0.04096937
0.14924458 0.18399402 0.10942747 0.15094288 0.12667036 0.10345455 0.113272 0.20324174
0.009559668 0.04175431 0.06436545 0.19533196 0.17285207 0.009792335 0.19449353 0.09193369
0.15676711 0.17008837 0.0891505 0.005554376 0.05962756 0.021618871 0.16346414 0.14012405
0.05629971 0.048498314 0.08784739 0.046150826 0.12756315 -0.025987895 0.09279156 0.08736513
-0.02451954 0.09768731 0.12373275 0.0039644944 0.10082004 0.15113111 0.14131907 0.1423594
0.0069900025 0.01967718 -0.006460212 0.08841284 0.025886357 0.1755937 0.07199538 0.08507894
0.07349964 0.08263403 0.07623858 0.10422688 -0.10392708 0.0013500514 -0.014219099 0.07781177
0.17818718 0.027288625 0.055869307 0.17119375 0.07399087 0.103391044 0.20023327 0.13608763
-0.008562447 0.123134114 0.01696168 0.065224126 -0.14002125 0.098781236 0.096121065 -0.052228365
0.056254923 0.098941535 0.048399355 0.1257858 -0.00049574743 -0.044521634 -0.012983601 0.05156613
0.060045335 0.083737925 -0.006144355 -0.054870415 0.0341912 0.023978202 0.08165029 0.0550376
-0.08327231 -0.072720006 0.10883722 0.00039638887 0.078149945 0.045981932 0.16111375 -0.05075211
-0.040862076 0.053687464 -0.1411059 0.012467279 0.12747785 0.006906333 -0.023248302 0.009356985
0.17918529 -0.05491045 0.08249393 0.023600008 0.00418098 0.09792097 0.07392861 0.06283667
0.18275802 -0.051766876 0.10035709 0.08776307 -0.03212481 0.12833661 0.06673113 -0.051304273
0.026597163 0.054818295 -0.016287547 -0.038962223 -0.08905733 -0.002373768 0.09608911 0.0832345
-0.082842596 0.06352647 0.13306724 0.028428951 0.17066239 -0.033318084 0.12371632 0.01267753
0.04772912 -0.03269598 0.00059988105 -0.002181521 7.1208546e-05 0.03196915 0.1126991 0.097395636
0.14466758 -0.001408557 0.019186165 -0.03082234 -0.011246707 0.020479532 0.11086374 0.13453628
0.028839443 0.004141475 0.066842325 0.10428957 0.010365057 0.023680136 -0.0077277427 -0.011990549
0.10663592 0.07782723 0.16220406 -0.048325673 -0.07925698 -0.028046403 0.084086694 -0.11102138
0.017002909 -0.00075607223 -0.018601948 0.04812093 -0.0042569865 -0.010688352 0.07857515 0.06180928
0.07277308 0.14852731 0.007437066 0.0037429873 0.047139183 -0.002423403 -0.014857381 0.008607877
0.09768593 0.028678244 0.016653176 0.09833066 0.092361175 -0.014510531 0.1416402 0.10364282
00000000: d535 003e 7ae3 453e 3681 433e b1d3 0d3d
00000010: b355 e63d 50f9 b03d 9bf4 bf3d 1a95 5e3e
00000020: 87e7 af3d b344 223d 9aa3 913d 0043 153e
00000030: f8bd 1f3e 41f4 ec3d 47d2 b33d ac17 86bb
00000040: 2595 fc3d 202e 2c3e 4cd3 673e dc7a 723e
00000050: e277 4b3d 16ae 153e 8525 363e f994 773a
00000060: aaad c33c 9d61 3f3e 50aa 1c3d e2f3 493d
00000070: 71a7 103e 2f50 0c3e af13 01bd 358b 9f3d
00000080: 896d 553d 8faa 733d ad9d 2e3e 9a9f 6c3d
00000090: d65f c53d 1e53 5a3d 46ed 173e 25a3 433e
000000a0: be33 e23d 9347 1c3d 5d1d 0e3c 27bc e6bc
000000b0: 264c b83d 4b51 133e 7eb4 383e 7834 263d
000000c0: a9a5 563e a5a6 983e a039 1e3e 783b b43d
000000d0: 636f 413e da32 4a3e b4cf ec3d cc4a d73d
000000e0: 598f 043c 1a12 6f3d 699e 2dbc a3c5 353e
000000f0: 0b1e ca3d 0e7b 463e 53df db3c 80cf 273d
00000100: 92d3 183e ee68 3c3e 821b e03d c590 1a3e
00000110: e0b5 013e fbdf d33d 26fb e73d 9a1e 503e
00000120: 27a0 1c3c 9106 2b3d 08d2 833d 1a05 483e
00000130: 2200 313e 0870 203c 5029 473e bb47 bc3d
00000140: 8f87 203e a52b 2e3e 8a94 b63d 7c01 b63b
00000150: 073c 743d 0f1a b13c 2563 273e ae7c 0f3e
00000160: 869a 663d 2ba6 463d 55e9 b33d a608 3d3d
00000170: ea9f 023e 91e4 d4bc 8009 be3d 7dec b23d
00000180: 34dd c8bc 4910 c83d 9967 fd3d 97e8 813b
00000190: bd7a ce3d 1dc2 1a3e f2b5 103e aac6 113e
000001a0: 640c e53b 0a32 a13c 30b0 d3bb cb11 b53d
000001b0: a00f d43c d6ce 333e 5072 933d de3d ae3d
000001c0: fb86 963d 083c a93d f922 9c3d e774 d53d
000001d0: b9d7 d4bd 35f4 b03a 39f7 68bc c75b 9f3d
000001e0: b376 363e 658c df3c 37d7 643d 6a4d 2f3e
000001f0: 8688 973d afbe d33d f309 4d3e 8e5a 0b3e
00000200: 8149 0cbc bd2d fc3d 39f3 8a3c 3a94 853d
00000210: bb61 0fbe d14d ca3d 1fdb c43d 69ed 55bd
00000220: 906b 663d dca1 ca3d 673e 463d fecd 003e
00000230: 0cf5 01ba 515c 36bd 2bb9 54bc 0237 533d
00000240: 19f2 753d ca7e ab3d 9656 c9bb cdbf 60bd
00000250: 120c 0c3d ef6d c43c 4438 a73d 1b6f 613d
00000260: ac8a aabd 3aee 94bd 0ce6 de3d 6ad2 cf39
00000270: 140d a03d 8d57 3c3d 01fb 243e 72e1 4fbd
00000280: fe5e 27bd 63e7 5b3d 117e 10be 8f43 4c3c
00000290: 8e89 023e 854e e23b 3973 bebc 0a4e 193c
000002a0: 597c 373e c8e9 60bd 94f2 a83d ce54 c13c
000002b0: 9a00 893b ca8a c83d e267 973d 83b0 803d
000002c0: eb24 3b3e 8109 54bd 0588 cd3d 20bd b33d
000002d0: 4e95 03bd ac6a 033e 55aa 883d 6e24 52bd
000002e0: 4be2 d93c 2689 603d 766d 85bc da96 1fbd
000002f0: b063 b6bd 3891 1bbb 5eca c43d d976 aa3d
00000300: 61a9 a9bd 2a1a 823d c742 083e d5e3 e83c
00000310: 1fc2 2e3e 8b78 08bd fb5e fd3d 6ab5 4f3c
00000320: 9c7f 433d 38ec 05bd 5641 1d3a d9f7 0ebb
00000330: cc55 9538 15f2 023d c9ce e63d 5d77 c73d
00000340: bd23 143e 549f b8ba 4e2c 9d3c 227f fcbc
00000350: 1c44 38bc b1c4 a73c 870c e33d e1c3 093e
00000360: b240 ec3c 36b5 873b a1e4 883d c595 d53d
00000370: 33d2 293c d8fc c13c 0139 fdbb 0274 44bc
00000380: ef63 da3d e263 9f3d d218 263e 24f1 45bd
00000390: 7c51 a2bd 92c1 e5bc a535 ac3d 2d5f e3bd
000003a0: af49 8b3c 2633 46ba 1d63 98bc 741a 453d
000003b0: 317e 8bbb 331e 2fbc 02ec a03d ba2b 7d3d
000003c0: 0d0a 953d 8b17 183e a2b2 f33b e84c 753b
000003d0: 0415 413d f5d1 1ebb 5f6c 73bc 0e08 0d3c
000003e0: 900f c83d a3ee ea3c 3e6c 883c 9661 c93d
000003f0: db27 bd3d 94bd 6dbc 210a 113e b042 d43d

decode.weight f4 [65, 128]
0.258069 0.14496528 -0.87000155 0.021988101 -0.37911415 -0.022173626 -0.13862866 -0.8338415
0.37083498 -0.0031098218 0.12689948 0.16313967 -0.43312424 0.75445896 0.83317965 0.009607572
0.66919756 -0.4246296 0.45065996 -0.4988812 0.54492474 0.034540225 -0.451249 -0.0014761923
-0.6213028 0.6279492 -0.6982428 -0.33356905 -0.6350726 0.36661217 -0.11772678 0.17428038
0.23742093 -0.25843507 -0.8894843 0.875037 -0.100751534 -0.6816919 0.7154846 -0.033800475
-0.24480422 0.54605865 0.7147933 -0.12862957 -0.58502 0.12944463 0.03407585 -0.56169504
0.04454449 0.40219322 0.2631632 0.06024447 0.28331515 -0.1875272 -0.87512857 -0.5172712
-0.36327043 0.0292029 -0.023548936 -0.7363615 -0.54439765 0.56087977 -0.255366 -0.15352927
0.64637333 -0.31416783 0.17581731 -0.28535196 -0.048750117 0.52232736 -0.10643031 -0.6270795
0.29451802 -0.7215553 0.100663126 0.03914117 0.5446437 -0.80988735 0.5090332 0.26009718
-0.35077426 0.13099337 -0.44356802 0.5257143 0.52271414 0.5848189 -0.85024524 0.03886065
0.4763911 -0.3991619 -0.35106403 -0.29597035 0.7238244 -0.29286626 -0.18944335 0.069173306
0.67131615 -0.37214008 -0.3487677 0.9880763 0.38716093 -0.40457454 0.13158672 -0.41143516
-0.029664254 0.15341245 -0.31404236 0.22656669 0.23608865 -0.15361093 -0.3829984 0.1586729
0.19677915 0.15452527 -0.01653591 0.20581092 0.1053495 -0.15264778 0.46418434 -0.34784856
0.20362927 0.9511594 0.628241 0.13217224 -0.019087419 -0.7187279 0.30339435 -0.13719518
0.0149926795 0.6526135 -0.49415168 0.3751927 1.072566 -0.18324469 -0.28546962 1.1402115
-0.6736778 -0.2639358 0.2800175 -0.9479749 -0.010343409 -0.8802408 -1.221127 0.52197814
-0.2664881 0.75637144 0.5221748 0.07205224 -0.72181743 -0.46284288 -0.19288746 0.013595202
-0.2581273 0.285591 -0.0748088 0.6720946 0.6969819 -0.271387 0.7546303 0.37811628
-0.7623249 -0.32355824 0.754358 -1.0531702 0.11746455 -0.4736968 -0.8967372 -0.016141532
-0.37685907 0.47705424 -0.66581476 -0.2160409 0.76491284 0.7026017 -0.2912751 0.55553615
0.89119875 -0.0911973 -0.096982226 0.6568146 -0.05785195 -0.2103255 1.1712726 0.49685696
0.62224585 -0.008229815 0.027044225 0.89672625 -1.1434374 -0.012989849 -0.15032098 0.31739366
0.22820929 -0.79075414 0.6244288 -0.19197226 -0.22060455 -0.7156119 0.08464359 -0.7482512
0.1471723 0.10093281 -0.24519224 -0.6420586 0.6138749 1.2403035 -0.23410511 0.4845465
0.32404682 -0.29979733 0.46290696 -0.6804116 0.2879631 -0.47915137 -1.2728387 0.281133
0.15877652 0.54320633 0.8712787 -0.54036236 -0.033544857 -0.7148039 -0.15234144 -0.06444537
0.28724423 -1.0980365 -0.30888268 1.2516689 0.5384252 -0.32027075 0.310406 -1.0587419
-0.705841 -0.5713292 0.60261196 0.640313 0.417298 -0.44522136 1.151912 0.35902074
-0.6532552 0.37869376 0.15958983 0.41354787 0.3973738 0.06939412 0.18400517 0.25274873
0.24347088 0.25131115 -1.1193051 0.577821 -0.20371379 -0.6108957 -0.75783914 0.33933327
00000000: 9f21 843e c771 143e 6cb8 5ebf 6420 b43c
00000010: 401b c2be 77a5 b5bc acf4 0dbe a376 55bf
00000020: 15de bd3e 27ce 4bbb f0f1 013e 160e 273e
00000030: 76c2 ddbe 3924 413f 434b 553f 1469 1d3c
00000040: 8850 2b3f 0d69 d9be e7bc e63e 5b6d ffbe
00000050: 3080 0b3f 0d7a 0d3d 1c0a e7be cb7c c1ba
00000060: b30d 1fbf 47c1 203f 0ac0 32bf 90c9 aabe
00000070: 1e94 22bf 97b4 bb3e bd1a f1bd 8e76 323e
00000080: 791e 733e 9a51 84be 3eb5 63bf 6d02 603f
00000090: d256 cebd 5c83 2ebf 002a 373f 5e72 0abd
000000a0: f5ad 7abe 80ca 0b3f b2fc 363f 78b7 03be
000000b0: dfc3 15bf 228d 043e 1e93 0b3d 3fcb 0fbf
000000c0: 4874 363d 45ec cd3e 54bd 863e e8c2 763d
000000d0: af0e 913e 2107 40be 6d08 60bf e36b 04bf
000000e0: 95fe b9be ec3a ef3c b3e9 c0bc 3082 3cbf
000000f0: a55d 0bbf d195 0f3f 55bf 82be c736 1dbe
00000100: b978 253f 9bda a0be 7409 343e a719 92be
00000110: 34ae 47bd 3fb7 053f 22f8 d9bd 4888 20bf
00000120: 11cb 963e d9b7 38bf 7828 ce3d 7e52 203d
00000130: c56d 0b3f c754 4fbf 0050 023f 752b 853e
00000140: af98 b3be 2023 063e 591b e3be 3695 063f
00000150: 98d0 053f b1b6 153f aca9 59bf 582c 1f3d
00000160: 89e9 f33e f35e ccbe aabe b3be 6d89 97be
00000170: 8e4c 393f 91f2 95be 70fd 41be bcaa 8d3d
00000180: 60db 2b3f 2589 bebe ae91 b2be 92f2 7c3f
00000190: f539 c63e 6524 cfbe abbe 063e a1a7 d2be
000001a0: 7302 f3bc 2718 1d3e 29ca a0be 1901 683e
000001b0: 39c1 713e 2f4c 1dbe 5e18 c4be 267b 223e
000001c0: 7980 493e df3b 1e3e 5176 87bc 19c0 523e
000001d0: 7bc1 d73d b34f 1cbe 92a9 ed3e 3519 b2be
000001e0: 3184 503e 2f7f 733f 67d4 203f 2958 073e
000001f0: 385d 9cbc 8dfe 37bf 8156 9b3e e57c 0cbe
00000200: dba3 753c ae11 273f 7301 fdbe 4219 c03e
00000210: d849 893f 7fa4 3bbe 1329 92be 73f2 913f
00000220: 2676 2cbf 9822 87be 745e 8f3e 7cae 72bf
00000230: 6777 29bc 7657 61bf e44d 9cbf 5ca0 053f
00000240: 2171 88be 8fa1 413f 3fad 053f 2090 933d
00000250: 07c9 38bf bef9 ecbe 4a84 45be 69be 5e3c
00000260: 4329 84be fc38 923e 5b35 99bd 640e 2c3f
00000270: 686d 323f 3df3 8abe 742f 413f 7598 c13e
00000280: ba27 43bf 6da9 a5be 9b1d 413f 48ce 86bf
00000290: 4191 f03d 6388 f2be 9290 65bf 3f3b 84bc
000002a0: acf3 c0be 7440 f43e d672 2abf d339 5dbe
000002b0: 54d1 433f b4dd 333f 0322 95be 9e37 0e3f
000002c0: 9a25 643f a6c5 babd 9e9e c6bd 0025 283f
000002d0: 2bf6 6cbd 915f 57be 43ec 953f 0964 fe3e
000002e0: 814b 1f3f 59d6 06bc da8b dd3c da8f 653f
000002f0: 285c 92bf 60d3 54bc beed 19be 6c81 a23e
00000300: b2af 693e dd6e 4abf 91da 1f3f 6094 44be
00000310: 29e6 61be 5732 37bf 9e59 ad3d 648d 3fbf
00000320: 56b4 163e dcb5 ce3d ad13 7bbe f45d 24bf
00000330: e826 1d3f 44c2 9e3f 40b9 6fbe 7b16 f83e
00000340: 77e9 a53e 097f 99be 2402 ed3e 742f 2ebf
00000350: e66f 933e 5453 f5be 61ec a2bf aaf0 8f3e
00000360: 5096 223e 920f 0b3f 1f0c 5f3f 3055 0abf
00000370: 5566 09bd 63fd 36bf 65ff 1bbe effb 83bd
00000380: ad11 933e 768c 8cbf df25 9ebe b036 a03f
00000390: 3cd6 093f 87fa a3be 89ed 9e3e db84 87bf
000003a0: ffb1 34bf a142 12bf c744 1a3f 8eeb 233f
000003b0: 15a8 d53e 0ef4 e3be da71 933f 91d1 b73e
000003c0: bc3b 27bf 26e4 c13e 846b 233e 8cbc d33e
000003d0: 9474 cb3e 811e 8e3d da6b 3c3e 4868 813e
000003e0: 6e50 793e dbab 803e 6445 8fbf 14ec 133f
000003f0: 599a 50be a963 1cbf bf01 42bf 17bd ad3e

decode.bias f4 [65]
0.004535797 -0.00447518 0.0436954 0.036377765 0.037929602 -0.019086815 -0.03755717 -0.04650947
0.08148276 0.042954795 0.12008689 -0.30494848 0.06520481 0.010917528 -0.051683515 -0.2986605
0.09770889 -0.17542729 -0.20839714 -0.0353139 0.18273185 0.03671668 0.06194247 0.2617112
-0.02864483 -0.11031849 -0.08958359 -0.18106605 -0.020822426 -0.05040628 0.064571194 0.08116436
0.1576047 -0.09371523 0.104160644 -0.115791164 0.047837727 -0.16502291 -0.099410094 -0.15340264
0.011567177 -0.03278323 -0.06548245 0.04379431 0.039789844 0.006923793 0.01742653 0.09640814
0.0013639604 0.027944969 -0.074527614 -0.010399384 -0.054605152 -0.048788726 0.03532623 0.03158744
-0.041032687 -0.018852398 -0.009825938 -0.024662497 -0.0766962 -0.1265105 -0.09651562 -0.0030287437
-0.07617798
00000000: 06a1 943b 88a4 92bb f3f9 323d da00 153d
00000010: 125c 1b3d f45b 9cbc 8cd5 19bd b780 3ebd
00000020: 6fe0 a63d 5ef1 2f3d 1ef0 f53d 3522 9cbe
00000030: 198a 853d 6edf 323c 18b2 53bd 07ea 98be
00000040: 991b c83d 36a3 33be 0f66 55be 4fa5 10bd
00000050: 0f1e 3b3e 3b64 163d 63b7 7d3d 03ff 853e
00000060: 90a8 eabc a9ee e1bd 9a77 b7bd 6169 39be
00000070: cb93 aabc d176 4ebd e73d 843d 8039 a63d
00000080: 2063 213e c5ed bfbd 2d52 d53d eb23 edbd
00000090: 7ef1 433d c4fb 28be 8597 cbbd 9515 1dbe
000000a0: 4284 3d3c b547 06bd aa1b 86bd aa61 333d
000000b0: adfa 223d fce0 e23b 15c2 8e3c a271 c53d
000000c0: ebc6 b23a d9ec e43c efa1 98bd 2e62 2abc
000000d0: a7a9 5fbd b0d6 47bd 3db2 103d d561 013d
000000e0: e411 28bd 5870 9abc f9fc 20bc 0109 cabc
000000f0: e612 9dbd f88b 01be fba9 c5bd e37d 46bb
00000100: 3303 9cbd
